4
Read data
(3358046, 128) (3358046,)
Validation split
[(0, 90417), (1, 77486)]
Training: (3190143, 128) (3190143,)
Validation: (167903, 128) (167903,)
____________________________________________________________________________________________________
Layer (type)                     Output Shape          Param #     Connected to                     
====================================================================================================
input_1 (InputLayer)             (None, 128)           0                                            
____________________________________________________________________________________________________
batchnormalization_1 (BatchNormal(None, 128)           256         input_1[0][0]                    
____________________________________________________________________________________________________
dense_1 (Dense)                  (None, 512)           66048       batchnormalization_1[0][0]       
____________________________________________________________________________________________________
dropout_1 (Dropout)              (None, 512)           0           dense_1[0][0]                    
____________________________________________________________________________________________________
dense_2 (Dense)                  (None, 128)           65664       dropout_1[0][0]                  
____________________________________________________________________________________________________
dropout_2 (Dropout)              (None, 128)           0           dense_2[0][0]                    
____________________________________________________________________________________________________
dense_3 (Dense)                  (None, 64)            8256        dropout_2[0][0]                  
____________________________________________________________________________________________________
dropout_3 (Dropout)              (None, 64)            0           dense_3[0][0]                    
____________________________________________________________________________________________________
dense_4 (Dense)                  (None, 2)             130         dropout_3[0][0]                  
====================================================================================================
Total params: 140354
____________________________________________________________________________________________________
None
// TRAIN ///////////////////////////////////////////////////////////////
Train on 3190143 samples, validate on 167903 samples
Epoch 1/15
…
